ai/TCNN-E750-L0.3312516510486603.pt (torch_old, 12622 bytes, 5 tensors)

weight f4 [1, 10, 4]
-0.6676974 -0.083472475 0.72720593 -0.10302291 -0.17649989 -0.5847231 -0.2757926 -0.27695146
0.21529487 -0.1738141 0.03214842 -0.50724435 -0.258453 -0.16634874 -0.08384128 -0.21864638
0.17646834 -0.10661404 0.11336669 -0.28944153 -0.18106624 -0.28606218 -0.19261156 -0.16433059
0.3032142 -0.20593219 -0.4086451 -0.26056853 -0.22559886 -0.22498025 0.030012779 -0.10370331
0.18808655 -0.15087537 -0.3267184 -0.26591873 -0.12622194 -0.26427427 0.02279075 -0.29906985
00000000: 38ee 2abf 9ef3 aabd 2b2a 3a3f adfd d2bd
00000010: 63bc 34be 6ab0 15bf b034 8dbe 95cc 8dbe
00000020: 4276 5c3e 53fc 31be 10ae 033d c4da 01bf
00000030: f453 84be 5357 2abe fab4 abbd d6e4 5fbe
00000040: 1eb4 343e 7658 dabd cc2c e83d ae31 94be
00000050: 6e69 39be be76 92be f73b 45be 4746 28be
00000060: e43e 9b3e e3df 52be ee39 d1be 3d69 85be
00000070: 6303 67be 3961 66be 5cdd f53c 6762 d4bd
00000080: c399 403e 137f 1abe a247 a7be 8026 88be
00000090: 5340 01be f54e 87be abb3 ba3c af1f 99be

weight f4 [1, 10, 3]
0.120045014 -0.4132398 -0.7362884 -0.14325497 -0.15163143 -0.36648232 -0.3382338 -0.07301209
-0.13301302 -0.4342476 0.0775571 0.4024586 -0.06282953 -0.08760372 -0.005957867 -0.15850435
-0.11914845 -0.21192728 0.022883143 0.019403186 -0.0360982 -0.058499616 -0.1052706 0.32358468
0.26213837 -0.006384902 0.1608442 0.1033108 0.16448826 0.6258518
00000000: 29da f53d 2b94 d3be 667d 3cbf 6eb1 12be
00000010: 4545 1bbe 92a3 bbbe fb2c adbe 5d87 95bd
00000020: 9134 08be b455 debe 42d6 9e3d 0e0f ce3e
00000030: c5ac 80bd 9469 b3bd 363a c3bb f74e 22be
00000040: 1a04 f4bd 7703 59be 6e75 bb3c 6ef3 9e3c
00000050: b5db 13bd 4b9d 6fbd 1d98 d7bd e4ac a53e
00000060: 0037 863e 7138 d1bb 58b4 243e 9d94 d33d
00000070: 9c6f 283e d337 203f

weight f4 [1, 10, 2]
-0.35192248 -0.2921715 -0.46569264 -0.29902583 -0.04065127 -0.445812 0.11045512 -0.3727596
-0.14213325 -0.16415437 0.109670915 -0.17602277 -0.05304638 -0.13064371 0.05933329 -0.41761652
0.20925264 -0.21357867 0.01691142 -0.23910081
00000000: 2f2f b4be 8197 95be 446f eebe ea19 99be
00000010: f281 26bd 7841 e4be 4b36 e23d 59da bebe
00000020: 618b 11be 1518 28be 259b e03d 503f 34be
00000030: 2947 59bd 77c7 05be 7707 733d d5d1 d5be
00000040: 5346 563e 5eb4 5abe d189 8a3c d8d6 74be

weight f4 [2, 30]
0.20147933 -0.15670924 -0.097743474 -0.077902526 -0.005124518 0.3324577 -0.3365632 0.26312786
-0.06480703 -0.3025598 0.2810601 0.5814753 0.4280348 -0.37616685 0.62406343 0.44786254
0.717662 -0.0018206442 -0.059495512 -0.33590436 0.39800873 0.49866274 -0.42508763 0.1855908
-0.27893054 -0.0009092708 -0.113353826 0.2287944 -0.044636864 0.27317652 0.29675272 0.675451
-0.488221 -0.26861694 -0.11400222 -0.11256489 0.43280002 0.11275546 0.083165824 0.00051082054
0.6048538 -0.21007082 -0.14166112 0.52578396 -0.03860168 -0.15577295 -0.641795 0.036599755
-0.31369337 -0.32160214 -0.22039913 -0.0002952413 0.1871724 -0.2519079 -0.3127081 0.2117566
-0.07390525 0.09578855 -0.03920786 -0.62279725
00000000: 9950 4e3e 6378 20be bb2d c8bd 5c8b 9fbd
00000010: 93eb a7bb e537 aa3e 0352 acbe b2b8 863e
00000020: 8cb9 84bd 1ee9 9abe 1ce7 8f3e 91db 143f
00000030: 6127 db3e f198 c0be 9fc2 1f3f 3d4e e53e
00000040: b2b8 373f afa2 eeba 91b1 73bd a8fb abbe
00000050: cdc7 cb3e b950 ff3e 16a5 d9be 840b 3e3e
00000060: fccf 8ebe 215c 6eba 0d26 e8bd 1449 6a3e
00000070: 25d5 36bd cbdd 8b3e f9ef 973e 5bea 2c3f
00000080: 1af8 f9be 2988 89be ff79 e9bd 6c88 e6bd
00000090: f797 dd3e 56ec e63d d852 aa3d 96e8 053a
000000a0: b3d7 1a3f ce1c 57be 9d0f 11be c799 063f
000000b0: cc1c 1ebd f282 1fbe ad4c 24bf a0e9 153d
000000c0: 6b9c a0be 09a9 a4be 4fb0 61be 9eca 9ab9
000000d0: 1faa 3f3e 13fa 80be 471b a0be b9d6 583e
000000e0: a35b 97bd ca2c c43d 6c98 20bd a46f 1fbf

bias f4 [2]
0.38792467 -0.3879238
00000000: 109e c63e f39d c6be
