ai/TCNN-E277-L0.6218060255050659.pt (torch_old, 12622 bytes, 5 tensors)

weight f4 [1, 10, 4]
00000000: dfe2 f8be d9d0 13be e5cb 173f 3eb9 dabe
00000010: db87 3d3e 7cae 91be 16f4 86be 1abc bdbe
00000020: 2b93 263d 1c20 5ebe 0436 fcbd 94a6 8cbe
00000030: 05b0 c2bc 0980 c8bd 936a 1bbe 1a7a 1ebe
00000040: 53b3 923d 0c66 04be 0ce5 843d 9365 97be
00000050: fb99 a5bb 4c7b 1cbe 7cd9 21be b003 00be
00000060: fc8b 943e f845 60be d6ec d7be 251c 8cbe
00000070: 7869 74be 4fc7 73be 89ac 8a3c 8c2e efbd
00000080: ae33 333e 29e5 27be 8afa adbe 68d9 8ebe
00000090: 69a6 0ebe dd01 8ebe c205 1f3c 97d2 9fbe
-0.4861059 -0.14435138 0.59295493 -0.42719454 0.18508856 -0.28453434 -0.26358098 -0.37057573
0.040667694 -0.21691936 -0.1231499 -0.2747084 -0.023765573 -0.09790046 -0.15177374 -0.15476266
0.0716311 -0.12929553 0.06489 -0.29569682 -0.0050537563 -0.15281409 -0.1580562 -0.12501407
0.2901305 -0.21901691 -0.4217288 -0.27365223 -0.23868358 -0.23806499 0.016927974 -0.116788
0.17500183 -0.16396011 -0.3398021 -0.27900243 -0.13930668 -0.27735797 0.009705963 -0.31215355

weight f4 [1, 10, 3]
00000000: d19e 05bc 4b8a 8fbe 00ab d9be c2f2 9abe
00000010: 07ff a9be 8ff3 b6be 6013 90be 7541 efbc
00000020: 0abc 03be 2a50 a0be 3ecd 2e3d 5ad4 af3e
00000030: 2018 363d 0c91 223d 4da5 173e ac14 14be
00000040: 69b3 debd e2b3 4fbe 6ae1 1c3d 5da0 0e3d
00000050: 576a a9bc b876 30bd ae04 b8bd c091 ad3e
00000060: dc1b 8e3e b4fe 133c 317e 343e 0b28 f33d
00000070: 7539 383e 952a 243f
-0.008155541 -0.28035197 -0.42513275 -0.30263335 -0.33202383 -0.35732695 -0.28139782 -0.029206017
-0.128647 -0.3131116 0.042676203 0.343417 0.0444566 0.03968911 0.14809151 -0.1446101
-0.108740635 -0.20283464 0.03830091 0.034820903 -0.02068059 -0.04308197 -0.089852676 0.3390026
0.2775563 0.009032894 0.17626263 0.11872872 0.17990668 0.64127475

weight f4 [1, 10, 2]
00000000: cbde b6be 1345 0bbe c3b2 0fbe fd18 b5be
00000010: 67e8 053e c34d d4be 0c95 bcbb fa8e c8be
00000020: e9d4 d9bd 6f0e 18be cb64 2d3d e765 8fbe
00000030: 59a7 26bd 1f3f f2bd 92d3 923d dc7d cfbe
00000040: 33ee 623e 7e0c 4ebe a1c9 ef3c f82e 68be
-0.35716853 -0.13600568 -0.14033036 -0.35370627 0.13076936 -0.41465577 -0.0057550725 -0.39171582
-0.106363125 -0.14849256 0.04233245 -0.28007433 -0.04068694 -0.11828446 0.0716926 -0.4052571
0.22161178 -0.20121953 0.029270949 -0.22674167

weight f4 [2, 30]
00000000: 5776 583e f5e3 0abe 089d 04be 2868 2cbd
00000010: de92 27bc 24aa a83e ce39 9bbe 8915 923e
00000020: b503 34bd 3b8d 8bbe 4387 243e d889 333e
00000030: 3518 443e 7fb9 33be 8bd5 f93e d8a4 133e
00000040: 2cd0 cb3e 5e75 ce3c cd95 41be 9ff4 d7be
00000050: 586d a23e 8d6c f93e d0d4 dcbe 87b7 553e
00000060: f538 99be 1c3e 84bc d02b 6abd f7ee 673e
00000070: 814d 97bc 9f08 883e 3edd 923e 3e85 273f
00000080: fcb4 e9be 04de 9bbe 3f06 dfbd db50 e0bd
00000090: c27f cc3e 2479 b93d eb35 7f3d dc8b f1bc
000000a0: 97a9 393f 42c7 483e 144e c23d 3877 a63e
000000b0: 48b0 c73d a274 173e 2bf8 a4be 54e8 1c3c
000000c0: 4d8f 3cbe 2760 71be 71fb 0ebe b5af 373c
000000d0: 9f09 463e 27d0 8cbe 4fb2 95be 0a70 683e
000000e0: e435 05be 42e1 c83d 64e3 85bd eb84 1dbf
0.21138893 -0.13563521 -0.12950528 -0.04209152 -0.010227887 0.32942307 -0.3031754 0.28532055
-0.043948848 -0.27256188 0.16067223 0.17533052 0.19149859 -0.1755123 0.48795733 0.14418352
0.3980726 0.02520245 -0.189048 -0.4217882 0.31724048 0.4871563 -0.43131113 0.20870791
-0.29926267 -0.016142897 -0.05717069 0.22649752 -0.018469574 0.26569077 0.2868442 0.65437686
-0.45645893 -0.30442822 -0.10889863 -0.10952922 0.3994122 0.09056309 0.06230728 -0.029485635
0.725244 0.19607261 0.094875485 0.32512832 0.0975042 0.14790586 -0.32220587 0.009576876
-0.1841404 -0.23571835 -0.13963105 0.011211325 0.19339608 -0.27502558 -0.292376 0.2269899
-0.13008839 0.098085895 -0.06537512 -0.6153094

bias f4 [2]
00000000: ba42 c03e 9d42 c0be
0.37550908 -0.37550822
